data.pth (torch, 7210 bytes, 6 tensors)

l1.weight f4 [8, 88]
0.35133317 0.6464366 0.0072138216 -0.20178397 -0.16128242 -0.48990706 -0.11575645 -0.111367926
0.0483742 -0.06459007 -0.096953705 -0.10909888 0.08641452 -0.06887206 -0.4525438 -0.3417545
0.22761817 0.35251465 -0.1334984 0.029911904 0.4660878 0.6719779 -0.2597847 0.09421926
0.51421416 -0.12129302 -0.2594518 -0.10219717 0.044783566 0.27906206 -0.44402677 0.33211982
-0.4439457 -0.44405428 -0.3304568 -0.33425313 0.3120444 0.31983036 -0.3047331 -0.15034068
0.42500752 -0.30269483 0.5160753 0.77720225 0.48457924 0.70675987 -0.1383114 -0.19242229
-0.74246484 0.1990933 -0.2022719 0.68966013 -0.07136873 -0.347279 -0.09064031 -0.4210393
0.49378303 -0.012560158 -0.20545964 -0.24838369 -0.3283288 0.29299828 0.56146175 -0.340115
0.24848552 -0.12462423 -0.1104521 -0.09767295 0.31047636 -0.08972421 -0.19098121 0.45677873
0.05364366 0.5908862 0.53678274 0.09210113 -0.003177918 -0.06705418 0.5188821 -0.18306974
-0.18580018 -0.444312 0.52166677 -0.06064066 0.2616699 0.634705 -0.025681125 0.33453023
-0.05657756 0.07051105 0.09257625 0.5022441 -0.11066455 -0.33741996 -0.18008535 -0.24785458
-0.2604665 0.44523716 -0.07693676 0.8722258 0.68667954 0.51048136 0.9568413 -0.08859472
-0.24363571 -0.23830138 0.19760486 -0.21733876 0.5335524 -0.57349336 0.48911396 0.4167212
-0.19220053 0.40154678 0.26544008 -0.7617966 0.85619867 0.32520065 -0.548157 -0.4350184
-0.58676064 -0.56113774 -0.39376786 0.8962073 -0.24631608 -0.18303232 0.58252245 0.0754968
0.0409949 0.45543486 0.2590513 -0.08476351 0.20098485 -0.29961163 0.632418 0.32542458
0.71889 -0.030767072 -0.3057163 -0.040212486 -0.2842108 0.021785343 0.093317874 0.2138348
0.1659354 0.12471584 -0.3189483 -0.19562086 0.24977997 -0.100973815 -0.4547766 0.38001367
0.10754112 -0.6164726 0.14909342 0.6068013 0.3333111 0.14484748 0.44323558 -0.09812495
-0.3241131 -0.1439514 -0.80147547 -0.30980843 -0.21477458 -0.18125468 0.7462829 0.4711451
0.09963109 0.26843897 0.23904939 -0.015085223 0.2937985 -0.46108675 -0.18902227 -0.049949463
0.1512584 0.2863308 0.05579057 0.38175574 0.6728549 0.3779041 0.49193507 0.39193612
0.22240458 0.16575538 0.4334313 0.4982331 -0.54016757 0.4806043 -0.36757502 0.44206354
0.1576409 0.15304756 0.04973189 0.15692286 0.1632037 0.4308045 0.26739174 0.14242972
-0.18608359 -0.40525073 0.5760122 0.6185766 -0.525598 0.26894394 0.8593343 0.40664807
0.7853832 0.8357456 0.6386072 0.33233538 0.17237611 0.18802927 0.26686555 0.9808322
0.5700571 0.27697003 0.4272294 -0.4401066 0.07364484 -0.038605396 -0.4045564 0.6791424
-0.5674829 0.35876724 0.3896463 0.05943457 0.19609685 0.3869618 0.46491987 -0.14515264
0.18612379 -0.2894386 0.50163376 0.63561016 0.7613335 0.23310801 0.45957443 0.20028529
-0.33985394 0.7649125 0.88660735 -0.36068946 0.2937416 0.00886851 0.15708594 -0.11649743
0.1940578 -0.09662646 0.43652573 0.5061365 0.59515786 0.41528302 0.6602754 0.12117433
00000000: f1e1 b33e de7c 253f ec61 ec3b 75a0 4ebe
00000010: 3827 25be 19d5 fabe b811 edbd de14 e4bd
00000020: 0624 463d cc47 84bd aa8f c6bd 3c6f dfbd
00000030: 19fa b03d cb0c 8dbd d2b3 e7be 72fa aebe
00000040: bd14 693e cd7c b43e ceb3 08be cf09 f53c
00000050: 0fa3 ee3e be06 2c3f 8002 85be 07f6 c03d
00000060: 8aa3 033f 7a68 f8bd ded6 84be c04c d1bd
00000070: f96e 373d 39e1 8e3e 7a57 e3be 9c0b aa3e
00000080: da4c e3be 155b e3be a231 a9be 3a23 abbe
00000090: 49c4 9f3e cec0 a33e fa05 9cbe e8f2 19be
000000a0: 969a d93e d1fa 9abe 831d 043f baf6 463f
000000b0: c51a f83e 37ee 343f 81a1 0dbe 590a 45be
000000c0: 2d12 3ebf 1ddf 4b3e 5d20 4fbe 918d 303f
000000d0: c529 92bd 8ece b1be a0a1 b9bd 7792 d7be
000000e0: 21d1 fc3e 1fc9 4dbc 0364 52be 4b58 7ebe
000000f0: b61a a8be df03 963e f5bb 0f3f 8e23 aebe
00000100: fd72 7e3e fd3a ffbd b634 e2bd c108 c8bd
00000110: c2f6 9e3e 54c1 b7bd 9490 43be e7de e93e
00000120: 74b9 5b3d 5144 173f 986a 093f 849f bc3d
00000130: 9e44 50bb b453 89bd 75d5 043f a276 3bbe
00000140: 6742 3ebe dd7c e3be f48b 053f 5762 78bd
00000150: 99f9 853e 077c 223f 3961 d2bc 8c47 ab3e
00000160: dfbd 67bd 1968 903d 9e98 bd3d 1293 003f
00000170: 18a4 e2bd 4fc2 acbe 4b68 38be 97cd 7dbe
00000180: dd5b 85be 20f6 e33e 0591 9dbd 314a 5f3f
00000190: 3bca 2f3f e8ae 023f 8df3 743f 2671 b5bd
000001a0: a47b 79be 4705 74be ee58 4a3e 0d8e 5ebe
000001b0: e496 083f 76d0 12bf 256d fa3e 7b5c d53e
000001c0: 37d0 44be 8a97 cd3e c3e7 873e 1a05 43bf
000001d0: d62f 5b3f b380 a63e 0454 0cbf bbba debe
000001e0: f235 16bf b9a6 0fbf f19b c9be d76d 653f
000001f0: 483a 7cbe d36c 3bbe 3120 153f 119e 9a3d
00000200: 45ea 273d c22e e93e 5fa2 843e 7e98 adbd
00000210: f9ce 4d3e b266 99be 25e6 213f 0d9e a63e
00000220: 2d09 383f 3a0b fcbc d986 9cbe d9b5 24bd
00000230: 1484 91be 2d77 b23c 711d bf3d 83f7 5a3e
00000240: f8ea 293e 056b ff3d 314d a3be d650 48be
00000250: 52c6 7f3e 5ccb cebd 7ad8 e8be 2791 c23e
00000260: 853e dc3d 26d1 1dbf f2ab 183e 5457 1b3f
00000270: c1a7 aa3e e652 143e c6ef e23e bcf5 c8bd
00000280: 27f2 a5be ff67 13be 7f2d 4dbf 369f 9ebe
00000290: deed 5bbe d49a 39be 650c 3f3f ee39 f13e
000002a0: 630b cc3d d570 893e 5dc9 743e 0328 77bc
000002b0: c26c 963e 9013 ecbe 0e8f 41be cf97 4cbd
000002c0: 7be3 1a3e f399 923e a784 643d 7d75 c33e
000002d0: 3840 2c3f a57c c13e eade fb3e daab c83e
000002e0: 07be 633e c7bb 293e b5ea dd3e 6918 ff3e
000002f0: 6c48 0abf c411 f63e cb32 bcbe 2756 e23e
00000300: 9e6c 213e 80b8 1c3e abb3 4b3d 63b0 203e
00000310: df1e 273e 6892 dc3e 92e7 883e 19d9 113e
00000320: b28c 3ebe 067d cfbe 8975 133f 095b 1e3f
00000330: 978d 06bf 05b3 893e 55fd 5b3f 2d34 d03e
00000340: e00e 493f 6cf3 553f c37b 233f dd27 aa3e
00000350: 5d83 303e bf8a 403e 9aa2 883e d217 7b3f
00000360: 43ef 113f 04cf 8d3e d0bd da3e a755 e1be
00000370: 1bd3 963d b120 1ebd 0422 cfbe 47dc 2d3f
00000380: 8f46 11bf 57b0 b73e b87f c73e aa71 733d
00000390: 9dcd 483e db1f c63e fa09 ee3e e5a2 14be
000003a0: 3c97 3e3e 4c31 94be 126b 003f 59b7 223f
000003b0: c1e6 423f deb3 6e3e 574d eb3e 9617 4d3e
000003c0: 5601 aebe 4ed1 433f b3f8 623f 4aac b8be
000003d0: 4d65 963e 3a4d 113c 23db 203e 3496 eebd
000003e0: 17b7 463e 18e4 c5bd 4d80 df3e 2992 013f
000003f0: 445c 183f fa9f d43e cf07 293f 3f2a f83d

l1.bias f4 [8]
0.44390613 0.8014657 0.87732184 0.81026036 1.3132198 0.86719996 0.5200463 0.4809214
00000000: aa47 e33e db2c 4d3f 2a98 603f 396d 4f3f
00000010: 9617 a83f d100 5e3f c121 053f 543b f63e

l2.weight f4 [8, 8]
-0.64039326 0.031695087 0.58470887 -0.9129474 -0.7267726 0.81402117 0.5769225 -0.5985663
0.36493862 0.48138297 0.5904561 -0.32172075 -0.60118705 0.7558283 0.9803762 -0.85029066
0.8867805 0.9409263 0.5528481 1.6157674 -0.13534461 -0.4190588 -0.4257655 1.2921352
-0.81199056 0.52706826 1.4478698 0.53987575 -0.29787228 0.50117064 -1.4375911 0.084068835
1.2923768 0.019589625 0.31830046 0.8163665 1.4195521 0.275977 -0.9003619 0.88749605
0.8904383 -0.9389008 1.2107745 -0.5238292 -0.19409578 1.3788161 0.86159545 0.75224507
-0.40982202 1.4206636 -0.28836018 1.0157999 -0.8144027 0.44096345 0.9958714 0.22240017
-0.57394797 -0.46944132 1.3534966 -0.57533747 1.6403354 1.3355374 1.0035499 -0.9163763
00000000: d0f0 23bf b5d2 013d 7baf 153f ecb6 69bf
00000010: c50d 3abf b163 503f 31b1 133f a43b 19bf
00000020: 3cd9 ba3e d477 f63e 2228 173f 95b8 a4be
00000030: 65e7 19bf f77d 413f eff9 7a3f a6ac 59bf
00000040: 0c04 633f 8ce0 703f 7487 0d3f 77d1 ce3f
00000050: c797 0abe e08e d6be f0fd d9be b064 a53f
00000060: 9dde 4fbf f2ed 063f cc53 b93f 4c35 0a3f
00000070: b782 98be b84c 003f fc02 b8bf 482c ac3d
00000080: 9a6c a53f 6c7a a03c 47f8 a23e 65fd 503f
00000090: e2b3 b53f db4c 8d3e 1e7e 66bf f132 633f
000000a0: c4f3 633f ce5b 70bf a9fa 9a3f ac19 06bf
000000b0: 0bc1 46be 0c7d b03f 8591 5c3f 2293 403f
000000c0: 31d4 d1be 4ed8 b53f f2a3 93be bb05 823f
000000d0: b27c 50bf f6c5 e13e 6ef1 7e3f dfbc 633e
000000e0: 41ee 12bf 9d5a f0be 603f ad3f 5149 13bf
000000f0: 83f6 d13f e4f2 aa3f 5374 803f a397 6abf

l2.bias f4 [8]
-0.07967278 -0.21454161 0.14899765 0.6350469 0.73609364 0.09090831 0.39685184 0.72794664
00000000: 7c2b a3bd ccb0 5bbe d792 183e 6f92 223f
00000010: a270 3c3f 232e ba3d 2a30 cb3e b65a 3a3f

l3.weight f4 [13, 8]
-1.9822297 -0.8625883 0.47252253 0.73601687 -0.45516488 -1.281647 0.16265485 -1.2483634
-0.58707654 0.30146208 -0.27252924 0.8122061 -0.35751975 -0.40285128 -0.35565218 -0.25656706
-0.8424988 -0.7146665 0.12120812 -0.07496853 0.047898393 0.6084018 -1.2048095 -0.48362923
-0.62115747 -0.512486 0.6363931 -1.5147998 0.73743075 -0.16721003 -1.6338155 -1.0155195
-1.3810785 -1.4285673 0.21313313 -0.5789563 0.55618274 -1.6355183 -0.012817797 0.22621493
-0.86499554 -1.7034912 -0.72042483 0.9806192 0.31426543 -0.17038064 -1.9662994 0.4961226
-0.39753264 -2.0814855 0.43673763 0.24964029 0.263413 0.009202784 -0.4620421 -1.6657733
-1.7883787 0.34245318 0.062881924 -0.7558557 -0.84067494 -1.2480042 0.73459595 -0.53530484
0.28236434 0.30303586 -1.9259816 -1.228335 -1.1039109 0.1933823 -0.58652806 0.44203186
-1.6532986 -0.2935802 -0.30700064 -1.2250415 -0.4318803 0.23465241 -0.11929835 0.34076232
0.116168804 0.26963204 -0.87120616 -0.966261 -1.1475451 0.13589855 0.37445706 -0.21755677
-0.87573266 -0.15775746 -1.7736794 -1.1931868 0.17688994 0.39265522 -1.2990415 0.6332207
0.1997209 0.2523913 -0.97110456 0.21037135 -1.0756596 0.14524774 -0.77687544 0.13060011
00000000: b4b9 fdbf 96d2 5cbf 79ee f13e 9a6b 3c3f
00000010: 5f0b e9be 020d a4bf fe8e 263e 5fca 9fbf
00000020: a64a 16bf 3d59 9a3e f488 8bbe bdec 4f3f
00000030: d40c b7be 8642 cebe 0b18 b6be c25c 83be
00000040: 00ae 57bf 62f4 36bf f63b f83d 1a89 99bd
00000050: 1b31 443d 38c0 1b3f 3337 9abf 409e f7be
00000060: 2d04 1fbf 4832 03bf a8ea 223f f6e4 c1bf
00000070: 43c8 3c3f 1b39 2bbe de20 d1bf 8bfc 81bf
00000080: 2ec7 b0bf 4bdb b6bf 923f 5a3e 7b36 14bf
00000090: fe61 0e3f aa58 d1bf bd01 52bc e3a4 673e
000000a0: 5970 5dbf 000c dabf c36d 38bf dc09 7b3f
000000b0: 66e7 a03e 4378 2ebe b3af fbbf c803 fe3e
000000c0: 6689 cbbe 0f37 05c0 139c df3e b4a1 7f3e
000000d0: 12de 863e 46c7 163c c890 ecbe 0f38 d5bf
000000e0: 98e9 e4bf 0656 af3e 3dc8 803d c27f 41bf
000000f0: 7936 57bf 9abe 9fbf 7b0e 3c3f bd09 09bf
00000100: 0f92 903e 8427 9b3e 9186 f6bf 153a 9dbf
00000110: f44c 8dbf 0206 463e b426 16bf 0052 e23e
00000120: 4a9f d3bf 2550 96be 302f 9dbe 29ce 9cbf
00000130: 6a1f ddbe b948 703e b152 f4bd 6678 ae3e
00000140: e9e9 ed3d 360d 8a3e 5e07 5fbf e25c 77bf
00000150: c2e2 92bf fd28 0b3e d6b8 bf3e 34c7 5ebe
00000160: 0430 60bf 2c8b 21be ed07 e3bf 58ba 98bf
00000170: a322 353e 1b0a c93e fe46 a6bf c01a 223f
00000180: a383 4c3e 6f39 813e 4f9a 78bf 966b 573e
00000190: 37af 89bf d3bb 143e 4fe1 46bf 09bc 053e

l3.bias f4 [13]
-0.115378484 -0.27726942 -0.70088476 -0.1876828 0.36647412 0.30895683 0.2788429 0.034653753
-0.21428473 0.08815982 0.30136624 0.20866226 -0.32560572
00000000: 8e4b ecbd 42f6 8dbe 2f6d 33bf ec2f 40be
00000010: 7fa2 bb3e 972f 9e3e 7fc4 8e3e 18f1 0d3d
00000020: 756d 5bbe 238d b43d ad4c 9a3e 8fab 553e
00000030: cbb5 a6be
